yubimoji/gesture_classifier.tflite (tflite, 6284 bytes, 6 tensors)

sequential/dense/BiasAdd/ReadVariableOp f4 [24]
00000000: 7324 7a3d c8a1 6f3e f6ec 2bbb e8a2 f93c
00000010: 0a33 d83d f2ec dfbd 5de8 4d3d a0cc bd3d
00000020: cd96 843c 44d2 383d 5048 553e c4f8 193e
00000030: 74f2 de3d d0f8 69bc 6828 9d3c 97ca ce3d
00000040: 6d3a ac3d e297 293b 3582 6dbd 5844 c23d
00000050: d583 353c e52f 023e a342 183e df35 50bc
0.061069917 0.23401558 -0.002623377 0.030473188 0.1055661 -0.109338656 0.050270427 0.09267545
0.016185189 0.0451224 0.20828366 0.15036303 0.10886088 -0.014280513 0.019184306 0.10097235
0.08409581 0.0025877883 -0.057985503 0.09485692 0.0110787945 0.12713583 0.1486917 -0.012708156

sequential/dense_2/BiasAdd/ReadVariableOp f4 [5]
00000000: 2dec 533f 331e 9e3e 72f5 4bbf 4a64 c1be
00000010: c288 b9be
0.8278225 0.30882415 -0.79671395 -0.37771827 -0.3623715

sequential/dense_1/BiasAdd/ReadVariableOp f4 [10]
00000000: 3114 d23e b681 a03f 0fc1 61be 8ec5 a43e
00000010: deb9 613e 8eb5 303e 4bfc dd3e 1191 3c3e
00000020: 5af0 0f3e df18 473f
0.4103103 1.2539585 -0.22046302 0.32181972 0.22043559 0.17256758 0.43356547 0.18414713
0.1405653 0.77772325

sequential/dense/MatMul f4 [24, 30]
00000000: 7447 513e 2ef6 2e3e 8b62 9a3e d61d 4bbe
00000010: c735 c03e 2967 c0be 7230 cbbe 92b0 5d3e
00000020: f95c 9abe 3c75 0abc 625f c1bd 3527 acbe
00000030: 5c04 fbbd f3d2 29bf 111f f5bd a167 053f
00000040: d6ba 37be 49ee c23e 3996 27be 2109 6e3f
00000050: d6de 32be d31a 3a3f 01f2 383b a397 573e
00000060: 70e3 77be 17c6 d43e 1e9b fbbd 81fb 8d3f
00000070: b9e4 05be 6d7f 843f de86 b5be 775b 84be
00000080: 6de1 18bf 33d3 c7be 620a 5bbf b6e6 39bf
00000090: e4b3 80be 88bf 913e 66fb 71bf 5bfb 89bd
000000a0: 9e6a 88bf e52b c8be 1fdc 81bf 85c7 16bf
000000b0: 8dff 60be 4d89 bf3e 3fc6 c9be 33d5 ba3d
000000c0: d146 38bf 9b03 313e 08dd 8bbf 26bc 343f
000000d0: 7ce3 3dbe c461 013f 09e5 7dbe 8589 483e
000000e0: 3a7c 02bf df3c c33e 12c5 42bf ba04 2d3f
000000f0: 898d 27bd d0f4 393e bcbf a7be f16f 35bf
00000100: 359d f33e 0a85 cebe fcc6 71be 7660 613f
00000110: aab9 08be 95c7 033e 556d b53e 5405 ddbe
00000120: 642e 163f 4cce acbe 84fc d8bc 257f 3d3f
00000130: 88bb 0fbd 7255 a23e da3b 9c3d 028d 953e
00000140: f137 a33e 7767 c03f 710e e3bc 4cbc 683f
00000150: 8cd8 88bc a542 183d ed4b 9dbc 4b42 a0bf
00000160: 917f 753e 6e3c c7bf 1883 91bf 46d0 d53e
00000170: b359 c0bc 539e 593f 532f 623d 8341 2a3f
00000180: 06dc 71be ff68 1e3f a4ce b9be faec bf3e
00000190: b8c6 363d 26a2 213f 63aa 083e b8ea 953f
000001a0: a132 eebd d9c7 2c3e 6608 5abc 2530 0d3e
000001b0: 3a6c 023e 4fb1 333f 08e6 533e 72dd 9d3f
000001c0: c056 e23c e654 04bf 4e24 363d b1de 4fbe
000001d0: da97 07be bd60 86bf f1f8 f23d 1379 acbf
000001e0: ed76 bbbe b09d 863e c1f3 9a3f dfdd a13f
000001f0: 226c c23f ed61 9d3f 7bb3 983e 263b 67bf
00000200: d689 a0bd 0ef5 3d3e e36d b63e bd6b 8c3f
00000210: 90a6 123f 68a3 283f 4677 13bd 7cef 84bf
00000220: 3f38 473e a030 a3bd 01eb 433e 13b7 303f
00000230: 8422 923e fcc4 fb3d 4ab0 f03c ef3e 8dbf
00000240: f589 0d3d 50c8 8fbd 9a3b 91bd 0606 0b3f
00000250: 5018 f13d 5ed5 833e 07e1 1fbe 852d b93e
00000260: e616 34be e69e 703e c07c b6bc 8b0e 563e
00000270: 5fff 023e 50f7 d0bb 59da 94be 8d17 46bd
00000280: 97ed 803d 6b29 9f3d e230 4ebc 2bb0 5ebe
00000290: a74c 9ebe 70ec 65be 0709 8abe ce08 883e
000002a0: 988a af3c 081f 92be 2eea 253e 7853 9abe
000002b0: 5790 c1be 7e3b 29be d425 94be c23f 573d
000002c0: 87d7 073e 00aa 403e 08dd a23d 199d 713d
000002d0: 786c 3e3f d3ad 163e c3c4 003f 0100 46bf
000002e0: 8b6b 4a3f 1dd2 85bf c6c4 90be e998 c7be
000002f0: feab 1abe a344 983d 4850 cd3e e39d 2cbf
00000300: 946a 6d3f aaec 9bbf dfc6 4dbe f856 0e3e
00000310: 525c efbb 090e 5e3e e26b a83d 8efa 333d
00000320: 1cda c03e c155 d43d c479 cfbd 89a7 273f
00000330: 7ab0 69ba 4265 cd3e 6d11 2bbd 3b4c 023e
00000340: 89c8 873e e734 1a3e af4a 493e 654e 6a3e
00000350: ac62 bf3e b9fa 05bf 20ee b13e 0c98 1ebf
00000360: 961f dfbe 66b6 c93e dcd3 24be 8708 833d
00000370: d937 c5bd 1b3c b0be 3896 c5bd af68 e4be
00000380: 31e3 4bbc 1059 c33e 5db1 aabe e181 973e
00000390: 2356 80be 7570 893f 9d66 6b3d 27eb 623f
000003a0: 4449 84be 4ab3 1b3e 5b58 41be 6e3d 4e3f
000003b0: c2ec 4abe 26ea 9b3f 158d 0fbe e943 773f
000003c0: 51bb 79bf 51bb f73d 4b08 cebf bd85 493e
000003d0: 4f0e 9fbf c34c d53e 0e24 1fbe 7dda 533f
000003e0: 57a5 bcbe ab68 0a3e 469a 17bf f305 803d
000003f0: 37a9 05bf 2348 0c3f 35c0 60bd fcca 0c3f
0.20437413 0.17086098 0.30153307 -0.198356 0.3754103 -0.37578705 -0.39685398 0.21649387
-0.30149058 -0.008450802 -0.09442021 -0.33623663 -0.12256691 -0.6633751 -0.11968816 0.5211125
-0.17942366 0.38072422 -0.16365899 0.9298268 -0.17467818 0.7269718 0.0028220417 0.21053939
-0.24207854 0.4155738 -0.12285446 1.1092378 -0.13075532 1.0351387 -0.35454458 -0.25851032
-0.5971897 -0.3902832 -0.8556272 -0.7261766 -0.25137246 0.2846644 -0.9452423 -0.067373954
-1.0657537 -0.3909599 -1.0145301 -0.5889819 -0.21972485 0.3740944 -0.39409062 0.09122696
-0.7198306 0.17286532 -1.0926828 0.7059959 -0.1854381 0.50539804 -0.24794401 0.1958371
-0.50970805 0.38132378 -0.76081955 0.6758534 -0.040906463 0.18159795 -0.3276347 -0.70873934
0.47580877 -0.40335876 -0.23611063 0.8803781 -0.13352075 0.12869103 0.35434976 -0.43168128
0.58664536 -0.33751142 -0.026487596 0.7402213 -0.035090953 0.31705815 0.07628603 0.29209143
0.31878617 1.5031575 -0.027716847 0.9091232 -0.01670482 0.037172932 -0.019201243 -1.2520231
0.23974444 -1.5565317 -1.1368132 0.41760463 -0.023480272 0.8500721 0.055220913 0.6650621
-0.23619089 0.6187896 -0.36290467 0.37485486 0.044623107 0.63138044 0.13346247 1.1712255
-0.116307504 0.16873111 -0.013307666 0.13787897 0.12736598 0.70192426 0.20693219 1.2333205
0.027629256 -0.51692045 0.044468217 -0.20299794 -0.1324152 -1.0498272 0.11863888 -1.3474449
-0.3661417 0.2629218 1.2105638 1.2645835 1.518925 1.229551 0.29824433 -0.9032463
-0.0783879 0.18550512 0.35630712 1.0970379 0.57285404 0.6587434 -0.03600242 -1.0385585
0.1945505 -0.07968259 0.19132616 0.6902935 0.28541958 0.12293431 0.029380936 -1.1034831
0.034555394 -0.070206285 -0.07091446 0.54306066 0.11772215 0.25748724 -0.15613185 0.3616754
-0.1758686 0.23498115 -0.022276282 0.20903985 0.12792729 -0.006377138 -0.29072836 -0.048362304
0.06295317 0.07771572 -0.012584897 -0.2174689 -0.30917856 -0.22453475 -0.26960012 0.26569217
0.021428391 -0.285393 0.16202614 -0.30141807 -0.37805435 -0.165266 -0.2893511 0.05255104
0.13265811 0.1881485 0.079523146 0.05898771 0.7438426 0.14714746 0.50300235 -0.77343756
0.7907035 -1.0454746 -0.28275126 -0.3898385 -0.15104672 0.074349664 0.40100312 -0.67428416
0.9274075 -1.2181599 -0.20095395 0.13900363 -0.0073047066 0.21685041 0.08223702 0.04394012
0.37666404 0.10367919 -0.10130647 0.65490013 -0.00089145417 0.40116316 -0.041764665 0.12724392
0.26520184 0.15059243 0.19657396 0.22881468 0.37379968 -0.523357 0.34751987 -0.61950755
-0.43578786 0.3939697 -0.16096443 0.06398111 -0.09629793 -0.34420857 -0.096477926 -0.44611117
-0.012444303 0.38153887 -0.33338442 0.29591277 -0.25065717 1.0737444 0.057470907 0.88640064
-0.25837147 0.15205112 -0.18881361 0.80562484 -0.19816878 1.2180831 -0.14018662 0.96588
-0.9755145 0.12096275 -1.6096281 0.19679923 -1.2426242 0.41660127 -0.15541098 0.8275526
-0.36844894 0.1351649 -0.5921978 0.06251135 -0.52211326 0.5479757 -0.054870803 0.5499723

sequential/dense_1/MatMul f4 [10, 24]
00000000: ff1d 72bf f6da 0b3e aa82 293e afd3 b1be
00000010: b869 cfbf 851c c43e 4090 ccbd 4717 9cbe
00000020: 6275 a13e 5fa8 63be 2f3d b5be 2739 6f3e
00000030: 1029 b9be fc02 9c3f f218 493f b264 833f
00000040: 7880 753b 9e6b 923f d13c 8c3f 69cd 203f
00000050: 15e7 cf3e 7a73 533f 8018 4f3f 96bd 293d
00000060: 6d7a 92bf 61e0 d1bf 9134 c8be bce6 3c3f
00000070: 37e3 3f3f 04d3 4dbe 0ec5 bcbe 03bf 8bbf
00000080: 392c 0dbf ab34 363f 3eb9 a7bf e0aa 6f3f
00000090: e228 a23e 5eba ba3e 97a6 a73d 3789 8cbf
000000a0: 705f 2a3f 1579 043d 6efd aa3e 8a1a 82bf
000000b0: 68cb 043d 703e 48bf 8ef0 75be 3725 a5bf
000000c0: 4199 c63f 48ed 0140 34a7 8abd ccd1 1dbf
000000d0: 2ca8 04bf 93a4 3abe a739 143f 2d01 7c3f
000000e0: 80da b33e c9e1 ffbe b97e e53f fda6 043f
000000f0: afad 5d3f 5249 683f 7e79 423e cd3c 823f
00000100: e12d 43be 2996 2c3f bab5 0c3d 5d38 6c3f
00000110: 343b 303e 0627 a23f 655e 253f a9fb de3e
00000120: e08f 7f3f 1dcb 203f b624 163f 8844 373f
00000130: 7743 033f a7da 993e 693e 97be dd00 d33e
00000140: 8b3b 15bf 5468 5d3f 2fdd e23e dcae a03e
00000150: 5752 8c3f 9da4 2fbf ebf7 433c 5492 783e
00000160: 8984 173e e93a f9be 935b 01bf 3cfa f8be
00000170: 37da c3be 02cc 28be b379 bebf 943b 4d3f
00000180: d8ff aa3e eccd b3bd e38c 603f 7225 b8bf
00000190: 9562 21bf 1185 2c3e 73aa a73f 3341 943f
000001a0: af69 5dbf 79d0 a9bf 190d f53e e2f8 4c3f
000001b0: c877 2e3e 6268 7f3e 424d 883e 18c6 9cbf
000001c0: 2d83 343f 3bf1 273f 2af8 9f3f 53b7 6dbf
000001d0: 1c6b a73e 3f0c 50bf 29f2 513e 0d6a 96bf
000001e0: dcb6 253f 1d49 d8bd 0dbb 763f 29ee 363e
000001f0: 7a1b c73d 1009 5c3d b3d1 7d3e 63da 3b3f
00000200: 8395 4c3f 2eaf 5a3e b14b 043d 9459 4a3d
00000210: 2bee 77bf f338 9ebd 495b 243f 22ac 8abf
00000220: ec05 003e 020f b53d 8837 973e e086 9dbf
00000230: 27ad 1c3f 9747 38bf 91e2 bcbd cba4 4d3f
00000240: 614c bcbe 7a9e 9cbe d982 663f ef94 4f3f
00000250: 67a0 0c3f e21a a03e c417 a2bf b9d6 8dbe
00000260: 120e cd3f 95b1 7a3f e1ad c6bd da47 c3bf
00000270: 929a afbf c081 e5be 7c3b 8f3f 5e54 423f
00000280: d84d b4bf 96db 413f b0d7 10bf 0f66 413f
00000290: 2f5c b63f a307 573f 5ba7 cd3d a03d 933f
000002a0: e836 0ebf 8582 e13e 6c26 483e 6d66 6ebf
000002b0: 0e66 91bf c9ae ecbd 5563 5e3e 6542 0abf
000002c0: e654 b73d 4260 5cbf 353e 1a3e 2a33 a43e
000002d0: ddb4 abbf 7c1c cf3f b0cf 1d3f ed58 563f
000002e0: 0fcf 133f 0634 b93f 7df6 7b3f f5fa 1a3f
000002f0: bc95 133f 7672 cb3e ed7f 973f 1545 e43d
00000300: ae15 933f a715 d83d 28de 3c3f a8ee 76bf
00000310: 7d5d 17bf 26c3 bebe 59fe 863f 8d90 6c3f
00000320: 9059 98bf a2d5 afbf 5969 003e 91a7 023f
00000330: 60ef 4f3f 3106 ad3e f0da 433e 1e7c 66bf
00000340: 9a8b 153f 0cc2 0e3f c982 393f f78c 5abf
00000350: 4d0e 203e 4d36 6dbf 9c6c 703e c199 94bf
00000360: 58cc de3e 22e4 da3e a2dc 13bf d6a5 533b
00000370: 2987 d53e b984 a9be 6be6 94bc 3f38 6a3f
00000380: 85d4 aebf 0a71 343e 0dba 053f b8ca 493f
00000390: b3bd c23f d1b9 68bd 2bb8 f0bf 1161 c0be
000003a0: 2c1a 803f a62c 5abf 8cb6 50bf 9c57 0cbf
000003b0: 823a e6bf 9eed 2fbe 51b5 7ebf 248a bebf
-0.9457702 0.13657746 0.1655375 -0.34731814 -1.6204138 0.3830301 -0.09988451 -0.3048651
0.31534868 -0.22232197 -0.35398242 0.23361646 -0.3616414 1.2188411 0.7855369 1.0265105
0.0037460607 1.1439092 1.095606 0.6281343 0.4060599 0.8259808 0.8089676 0.04144057
-1.1443611 -1.63966 -0.39102605 0.7378957 0.7495608 -0.20100027 -0.3686909 -1.0917667
-0.55145603 0.71174115 -1.3103406 0.9362011 0.31671816 0.36470312 0.08186071 -1.0979375
0.66551876 0.032342035 0.33396477 -1.0164349 0.032420546 -0.7822027 -0.24017546 -1.2901982
1.5515519 2.0301075 -0.06770173 -0.6164825 -0.5181911 -0.18226843 0.5790047 0.98439294
0.3512764 -0.49976948 1.7929298 0.51817304 0.86593145 0.9073688 0.18991658 1.0174805
-0.1906047 0.67416626 0.034352995 0.92273504 0.17210084 1.2668159 0.6459716 0.43551376
0.9982891 0.62809926 0.58649766 0.71588945 0.5127482 0.3004963 -0.29539803 0.41211596
-0.5829398 0.8648732 0.44309375 0.31383407 1.0962628 -0.68610555 0.011960964 0.2427457
0.14796652 -0.48677757 -0.50530356 -0.48628414 -0.38252422 -0.16484073 -1.488089 0.80169034
0.33398318 -0.08779511 0.87714976 -1.4386427 -0.6304105 0.16847636 1.3098892 1.1582397
-0.86489385 -1.3266746 0.47861555 0.80067265 0.1703788 0.24942163 0.26621443 -1.2247953
0.7051266 0.65602463 1.2497609 -0.92857856 0.32698905 -0.81268686 0.20502533 -1.1751114
0.64732146 -0.1056082 0.96379167 0.17864288 0.097220376 0.05371958 0.24787025 0.73380107
0.79915637 0.21355888 0.032298747 0.049401835 -0.9684779 -0.07725706 0.6420179 -1.0833781
0.12502259 0.08840753 0.29534554 -1.2306786 0.6120171 -0.7198424 -0.092229016 0.8032958
-0.36777022 -0.30589658 0.9004341 0.8108663 0.54932255 0.3127051 -1.2663503 -0.27702883
1.6019919 0.9792722 -0.097011335 -1.5256302 -1.3719046 -0.44825554 1.1190028 0.75909984
-1.4086256 0.75725687 -0.56579113 0.75546354 1.4246882 0.8399603 0.10041686 1.1503181
-0.5555253 0.4404489 0.19545907 -0.9312504 -1.135927 -0.11556775 0.2171758 -0.5400756
0.0895174 -0.8608438 0.15062793 0.32070285 -1.341457 1.6180568 0.6164503 0.8372944
0.5773782 1.4469001 0.98422986 0.6053918 0.5765035 0.39735764 1.1835915 0.11145989
1.1490991 0.10551005 0.73776484 -0.9645791 -0.59127027 -0.3725826 1.0546371 0.92408067
-1.1902332 -1.373707 0.12540187 0.51036936 0.8122463 0.33793786 0.19126487 -0.9003314
0.5841614 0.5576484 0.7246519 -0.85371345 0.15630455 -0.9266098 0.23478931 -1.1609422
0.43515277 0.42752177 -0.57758534 0.003229489 0.41704682 -0.33109072 -0.018176278 0.91492075
-1.3658606 0.17621246 0.52237016 0.7882495 1.5214142 -0.056817833 -1.8806204 -0.37574056
1.0007987 -0.8522438 -0.81528544 -0.5482118 -1.7986605 -0.17180488 -0.99495417 -1.4885907

sequential/dense_2/MatMul f4 [5, 10]
00000000: d0fb 1bbf fe19 a63f 044f c8bf 3b36 ec3e
00000010: be04 a1bf 4225 edbf 434d a9bf b26b ccbf
00000020: 0af0 96bf bcac 983f 2760 6fbf 1a6b 11be
00000030: 69b2 b8bf e0c9 2e3f 0d5a 0cbf 9973 a13f
00000040: e453 9c3f e2f9 b2bf 5084 39bf b34c aebf
00000050: d3ef abbf 0373 aebf 185f 8c3f 602f 5f3f
00000060: 4a6f 3d3f 0da5 c43e c849 96bf d613 5dbf
00000070: b82b ae3f 391d 573f 2036 2a3f ec1f 243e
00000080: 31ad f8be 5abb 8ebf 41a6 8b3f 1e5b 103d
00000090: 0c16 5abf 32dc 213f 3c2e 683f d917 b7bf
000000a0: b7d3 8b3f e2bf ebbf 527b af3f 1dce 1fbe
000000b0: 2b5f 45bf e610 6abf f985 aa3e 1ab1 1d3f
000000c0: ea53 8dbf e013 8fbf
-0.6093111 1.2976682 -1.5649114 0.46135125 -1.2579572 -1.8526995 -1.3226703 -1.5970366
-1.1792004 1.1927714 -0.9350609 -0.14201012 -1.4429446 0.68276787 -0.54824907 1.2613403
1.2213101 -1.3982508 -0.7246752 -1.3617157 -1.3432564 -1.3628849 1.096652 0.87181664
0.7399794 0.38407174 -1.1741266 -0.8635839 1.3607092 0.84028965 0.6648884 0.16027802
-0.48569635 -1.1150925 1.0910112 0.035243146 -0.8518989 0.63226616 0.9069555 -1.4304153
1.0923985 -1.8417933 1.3709509 -0.1560597 -0.7709834 -0.91432035 0.33305338 0.6159836
-1.1041234 -1.117794
